data.pth (torch, 5591 bytes, 6 tensors)

l1.weight f4 [8, 66]
-0.16902404 0.061942644 0.3675891 0.47765917 -0.1078266 -0.041012187 0.3423101 0.96678984
0.46576825 0.46098953 0.7962246 0.4706576 -0.19732106 0.62406164 0.30344173 0.47864056
-0.040154412 0.386491 -0.31774363 0.90616304 0.09752137 -0.40415856 -0.08728795 -0.51725143
-0.51711017 -0.19631532 0.29055345 0.019193066 0.14802681 -0.007220928 0.17744331 -0.23825754
0.7650426 0.4955125 0.015496974 0.3958269 0.19152772 0.3143303 0.33660015 -0.49010384
0.18207482 0.33122534 0.70127726 0.2994382 0.51423174 0.45228323 0.37996933 0.57154065
-0.21166481 0.3486398 -0.01865669 -0.48183212 0.56214976 0.37319142 -0.6174411 -0.07045098
-0.2270606 0.47229603 0.03074605 0.37778968 0.0057805036 -0.09451901 0.6716521 0.34892642
0.10871792 0.22816554 0.88343704 -0.0829579 -0.35340542 0.17267746 0.46966964 0.03127845
-0.1657538 0.14371166 -0.13526605 -0.37657586 -0.3838348 -0.38801458 0.36532885 0.09903433
0.24754211 -0.05542873 -0.22820896 -0.012770766 0.37318146 0.20245455 0.42251655 0.4475849
0.53345335 0.62113893 0.8064031 0.7626304 0.18739346 -0.09621186 0.6486464 -0.625298
0.5126816 -0.42362398 0.081762366 0.17021601 0.7253211 -0.43018395 -0.20689239 0.33540255
-0.32091874 0.71024716 0.5298585 -0.2690641 -0.30261675 0.43843597 -0.17666535 -0.085931756
0.3428302 0.2889477 0.76061654 -0.036627535 -0.28125882 0.4773623 -0.14247854 -0.26743418
1.3239529 0.6776707 0.48524022 0.35948306 0.46758437 -0.10408569 0.40949902 0.5747491
-0.8095773 -0.121489234 0.28489214 -0.36504358 0.34204215 -0.12417361 0.7694718 0.5137602
-0.22063033 -0.010514946 0.40279406 0.39611304 0.48821774 0.43386486 0.7509697 0.45238635
-0.1378149 0.8280311 0.30408683 0.77375525 -0.05393883 0.57383907 -0.30872157 0.5099956
-0.21645007 -0.4457605 0.32104763 -0.4466322 -0.44510278 0.23848656 0.46860668 0.0012822367
-0.22893265 -0.34632906 -0.01743529 -0.32112277 0.07464388 0.7901474 0.25175667 0.66216165
-0.12509319 0.48061344 -0.032821942 -0.44669074 -0.039548993 0.43037465 0.56123674 0.42465
0.5556772 0.45864108 0.38042822 0.23918445 -0.38804477 0.5852274 -0.08932215 -0.24277091
0.6788985 -0.17971413 0.6526014 0.18611866 -0.22705571 0.5690046 -0.40376297 0.42564994
-0.07528602 -0.33206823 0.78860223 0.5056999 0.041061632 0.09413508 0.019023225 -0.04537173
0.03733805 -0.05742468 0.11079919 -0.0035908595 -0.056332223 -0.0737275 -0.117191315 -0.029131366
0.021399692 0.11615213 0.077336095 0.032218546 0.00051783875 -0.11510573 -0.0442184 0.028983176
0.02838355 0.048081666 0.04068795 0.013210401 0.039477438 -0.11147054 0.10969795 -0.02615431
-0.10303072 -0.08788878 -0.08975242 0.008928588 0.036311015 0.11434722 -0.034496196 -0.034564868
-0.11021354 -0.06970294 0.002301408 0.05096659 0.06341663 0.02298142 0.111595884 -0.107291386
0.015085354 -0.07366709 -0.012419686 -0.04034169 0.01682739 -0.03631837 0.058911577 -0.10755408
0.07337154 -0.10907449 0.08906249 0.074670754 0.021290585 0.01281184 0.0542392 -0.0040925965
00000000: a314 2dbe 92b7 7d3d a334 bc3e be8f f43e
00000010: 31d4 dcbd 65fc 27bd 4543 af3e 8a7f 773f
00000020: 2d79 ee3e d206 ec3e 60d5 4b3f 08fa f03e
00000030: 880e 4abe 81c2 1f3f b75c 9b3e 6010 f53e
00000040: f478 24bd 26e2 c53e 4baf a2be 4dfa 673f
00000050: 49b9 c73d dfed cebe 06c4 b2bd 976a 04bf
00000060: 5561 04bf e206 49be 6cc3 943e c73a 9d3c
00000070: 5794 173e 899d ecbb b3b3 353e c9f9 73be
00000080: d5d9 433f d0b3 fd3e 05e7 7d3c d3a9 ca3e
00000090: d81f 443e e7ef a03e db56 ac3e e4ee fabe
000000a0: d271 3a3e 5e96 a93e e886 333f f74f 993e
000000b0: b1a4 033f ab91 e73e 578b c23e 7d50 123f
000000c0: a9be 58be ea80 b23e ead5 98bc b3b2 f6be
000000d0: 0ce9 0f3f f212 bf3e 9f10 1ebf 9a48 90bd
000000e0: 9382 68be c9d0 f13e 24df fb3c a66d c13e
000000f0: 616a bd3b 2f93 c1bd 64f1 2b3f 7ca6 b23e
00000100: 80a7 de3d 3aa4 693e ee28 623f d5e5 a9bd
00000110: 8ef1 b4be 5cd2 303e 8a78 f03e d51d 003d
00000120: 5dbb 29be 2629 133e 2f83 0abe 8dce c0be
00000130: ff85 c4be d9a9 c6be 620c bb3e 83d2 ca3d
00000140: ae7b 7d3e 3c09 63bd 9caf 69be 7a3c 51bc
00000150: a411 bf3e 3f50 4f3e 1754 d83e d929 e53e
00000160: 6690 083f f602 1f3f 6f70 4e3f bf3b 433f
00000170: 12e4 3f3e b90a c5bd b10d 263f 8813 20bf
00000180: 1a3f 033f 3ee5 d8be 0773 a73d 1b4d 2e3e
00000190: a5ae 393f 1241 dcbe 99db 53be e2b9 ab3e
000001a0: 764f a4be c2d2 353f cfa4 073f c5c2 89be
000001b0: 95f0 9abe ae7a e03e c3e7 34be fdfc afbd
000001c0: 7187 af3e f4f0 933e c4b7 423f c106 16bd
000001d0: 2801 90be d568 f43e e5e5 11be 22ed 88be
000001e0: 4a77 a93f d47b 2d3f 6871 f83e 2a0e b83e
000001f0: 3867 ef3e e12a d5bd dba9 d13e c222 133f
00000200: 7540 4fbf 59cf f8bd 62dd 913e fee6 babe
00000210: 2620 af3e bc4e febd 1bfc 443f ca85 033f
00000220: ebec 61be e146 2cbc 063b ce3e 54cf ca3e
00000230: adf7 f93e 8923 de3e 8d3f 403f 2f9f e73e
00000240: 591f 0dbe d9f9 533f 45b1 9b3e d314 463f
00000250: f6ee 5cbd 1ee7 123f c110 9ebe 128f 023f
00000260: 16a5 5dbe b83a e4be 5b60 a43e faac e4be
00000270: 83e4 e3be d235 743e 37ed ef3e b910 a83a
00000280: 526d 6abe 0b52 b1be 74d4 8ebc 346a a4be
00000290: e4de 983d 1a47 4a3f 40e6 803e 6d83 293f
000002a0: 6e18 00be f712 f63e 4d70 06bd a6b4 e4be
000002b0: 20fe 21bd 115a dc3e 36ad 0f3f ba6b d93e
000002c0: dc40 0e3f 01d3 ea3e 7dc7 c23e c5ec 743e
000002d0: cead c6be 76d1 153f 88ee b6bd f098 78be
000002e0: 4bcc 2d3f fb06 38be e310 273f e495 3e3e
000002f0: 4b81 68be 49aa 113f 05ba cebe caee d93e
00000300: 8f2f 9abd d904 aabe d6e1 493f 8c75 013f
00000310: 3e30 283d e5c9 c03d 98d6 9b3c b5d7 39bd
00000320: c8ef 183d 2436 6bbd b0ea e23d a054 6bbb
00000330: 9ebc 66bd 72fe 96bd 0002 f0bd e7a4 eebc
00000340: 684e af3c 2be1 ed3d 6362 9e3d 98f7 033d
00000350: 92bf 073a 8ebc ebbd 5a1e 35bd 206e ed3c
00000360: 9e84 e83c 48f1 443d 68a8 263d 7070 583c
00000370: 18b3 213d ab4a e4bd 52a9 e03d 9041 d6bc
00000380: c501 d3bd 08ff b3bd 1ed0 b7bd 3649 123c
00000390: dcba 143d e02e ea3d e24b 0dbd e493 0dbd
000003a0: a3b7 e1bd 6ac0 8ebd 38d3 163b 58c2 503d
000003b0: 94e0 813d 8843 bc3c 628c e43d 96bb dbbd
000003c0: 9028 773c c5de 96bd f07b 4bbc 543d 25bd
000003d0: 98d9 893c 92c2 14bd 444d 713d 5045 dcbd
000003e0: d143 963d 7262 dfbd 6566 b63d fbec 983d
000003f0: 9869 ae3c c0e8 513c ec29 5e3d 301b 86bb

l1.bias f4 [8]
0.5173597 0.98354715 0.44675457 -0.14946465 0.5248366 0.42826706 0.6608421 0.25405064
00000000: af71 043f bfc9 7b3f 04bd e43e 430d 19be
00000010: b15b 063f d245 db3e f32c 293f ed12 823e

l2.weight f4 [8, 8]
-0.09788737 -0.08432299 -0.05082363 0.2583523 -0.2708289 -0.14667065 -0.20442566 -0.18474835
0.43924168 -0.22165301 0.9892311 -0.025590176 -0.8464074 1.2749705 1.5561123 -0.40584242
1.066982 1.5665613 1.2969145 0.2626014 0.26381794 -0.22466244 -1.4881109 1.26863
1.6380333 -0.9705512 1.1677458 0.07366919 1.3832633 1.3089895 0.4242757 0.093802415
0.83163756 0.11673806 -0.12496148 -0.1291543 -0.6081776 0.5433305 0.90884376 1.0339639
-0.6161932 1.6560868 -0.26468983 0.24561693 -1.2600343 0.2311202 1.1399843 0.43983135
0.86340356 0.4557812 -0.4249469 0.08932023 1.241152 -0.81976825 0.019798066 -1.0108316
-0.1555834 0.47319478 -0.10684362 -0.2878913 0.6383511 0.12873228 0.8245476 -1.0628426
00000000: 2c79 c8bd 88b1 acbd 702c 50bd c146 843e
00000010: 16aa 8abe d530 16be f654 51be ac2e 3dbe
00000020: 49e4 e03e 02f9 62be 403e 7d3f 7da2 d1bc
00000030: 28ae 58bf 3c32 a33f b02e c73f 94ca cfbe
00000040: de92 883f 1585 c83f 4b01 a63f b173 863e
00000050: 2513 873e e90d 66be 6b7a bebf 7862 a23f
00000060: 13ab d13f 0b76 78bf b278 953f dfdf 963d
00000070: c60e b13f f88c a73f aa3a d93e 7b1b c03d
00000080: 33e6 543f 5d14 ef3d ceeb ffbd 0641 04be
00000090: 87b1 1bbf b517 0b3f fca9 683f ee58 843f
000000a0: d6be 1dbf a7fa d33f 6d85 87be 0183 7b3e
000000b0: ce48 a1bf c6aa 6c3e 01eb 913f 9331 e13e
000000c0: 0408 5d3f 275c e93e a492 d9be 86ed b63d
000000d0: 12de 9e3f 55dc 51bf 8e2f a23c ee62 81bf
000000e0: 4151 1fbe 9646 f23e d4d0 dabd 7d66 93be
000000f0: fa6a 233f 65d2 033e 8d15 533f 3a0b 88bf

l2.bias f4 [8]
-0.12396598 0.08098255 0.4395344 0.0066909413 -0.11667837 0.67834055 1.0437858 0.823538
00000000: e0e1 fdbd 2eda a53d a70a e13e af3f db3b
00000010: 12f5 eebd baa7 2d3f c69a 853f 63d3 523f

l3.weight f4 [9, 8]
-0.18239984 -0.03982984 0.5253342 0.4121454 -0.23836474 -0.99526155 -1.18516 -1.6782302
0.2670907 -1.0164709 -1.1183276 0.53438413 -1.5924227 -0.8486877 0.7495309 0.6731592
-0.12535185 -1.0993975 0.7078433 0.030856311 -0.44722027 -1.4469453 0.60464543 -0.054322563
0.12583178 0.22411819 -0.945136 -1.1542915 -0.43255097 1.0593807 0.057120327 1.0238836
-0.0847958 -1.0200651 0.5737598 -1.0621021 0.6475192 0.42781666 -1.2876168 -1.3964984
-0.05709356 0.4336638 -1.6335753 0.18524507 0.54491633 0.028192397 -0.8072156 0.01892237
-0.30222353 0.32398647 0.019560667 -0.1374724 0.48141304 0.0399059 -0.6147021 -1.6228261
0.05071205 0.1639555 -0.5196611 0.6838665 -0.2544899 -1.2821969 -0.2756459 0.120712474
-0.19839613 -1.0382036 0.86392313 -1.4577068 -1.5169694 0.4105775 0.10954613 0.45494255
00000000: 06c7 3abe 9d24 23bd 4d7c 063f b904 d33e
00000010: e315 74be 76c9 7ebf 53b3 97bf 3fd0 d6bf
00000020: 1dc0 883e b81b 82bf 5c25 8fbf 66cd 083f
00000030: 82d4 cbbf 9943 59bf 42e1 3f3f 2954 2c3f
00000040: 3c5c 00be 0fb9 8cbf 3835 353f 60c6 fc3c
00000050: 0efa e4be 8135 b9bf 0bca 1a3f 5681 5ebd
00000060: 0cda 003e 3d7f 653e 6ff4 71bf d3bf 93bf
00000070: 5277 ddbe c999 873f 01f7 693d 9e0e 833f
00000080: 6ca9 adbd 7e91 82bf ece1 123f f6f2 87bf
00000090: d1c3 253f c90a db3e a1d0 a4bf 76c0 b2bf
000000a0: f0da 69bd 2e09 de3e ff18 d1bf e2b0 3d3e
000000b0: a37f 0b3f bef3 e63c aea5 4ebf 1603 9b3c
000000c0: 0bbd 9abe 8ee1 a53e b13d a03c 91c5 0cbe
000000d0: c57b f63e 5e74 233d 1e5d 1dbf c4b8 cfbf
000000e0: 70b7 4f3d f3e3 273e 8308 05bf e011 2f3f
000000f0: 804c 82be 071f a4bf 7621 8dbe 1a38 f73d
00000100: 5b28 4bbe dbe3 84bf 112a 5d3f 2396 babf
00000110: 0e2c c2bf 3737 d23e b959 e03d 3bee e83e

l3.bias f4 [9]
0.030173464 0.13842805 0.15396959 0.39631373 0.23914722 -0.049703084 -0.4307733 -0.058602404
-0.07602321
00000000: 572e f73c 15c0 0d3e 34aa 1d3e a2e9 ca3e
00000010: 02e3 743e 7695 4bbd 518e dcbe 1309 70bd
00000020: 0fb2 9bbd
